models/model.pth (torch, 26055 bytes, 6 tensors)

weight f4 [100, 4]
000000 74 33 b7 be c5 80 87 be 7c 33 de 3e 5f af 84 3e
       -0.35781443 -0.2646543 0.43398654 0.25915048
000010 d1 44 fc 3e b0 47 db 3e bc 9c 02 3e 77 44 6e 3e
       0.49271253 0.4282813 0.12755102 0.23268305
000020 a4 ef c8 3e 69 05 71 bb e6 e2 f9 3e 7b 0d e6 3e
       0.3924533 -0.0036776906 0.48805922 0.4493216
000030 2e ac e0 3e 57 f4 01 bf f4 ea bf 3e 5e a2 b6 be
       0.43881363 -0.5076346 0.37483943 -0.3567075
000040 90 2e 36 3d 5e 23 c9 3e fd 8f 65 be 3b 8c 9c bd
       0.044478 0.39284796 -0.22418208 -0.07643934
000050 0d fe 15 bf 84 57 01 bd 7f 32 7e be 6a a8 09 bf
       -0.58590776 -0.031577602 -0.2482395 -0.53772604
000060 a0 dd 6c be 39 67 de be b7 59 9b be 6b 5a c3 be
       -0.23131418 -0.43438128 -0.30341884 -0.3815492
000070 4a 56 46 3e 2d 2e 06 3d f2 99 b9 be d5 37 2c 3e
       0.19368854 0.03275888 -0.36250263 0.16818173
000080 43 cf 0b be 77 49 8c be b1 18 1f 3f e9 81 d7 3e
       -0.13653283 -0.273998 0.6214705 0.420913
000090 ea bd 6d 3e e7 d8 a9 3e 08 37 ee 3e f7 6c b5 be
       0.23216978 0.33173296 0.4652636 -0.35434696
0000a0 c8 1d e4 3d 6c 42 23 3d da bd c4 be a9 cd 31 be
       0.11138493 0.039858267 -0.38426095 -0.1736361
0000b0 9d 04 61 3e bc 32 04 3f 1b ab a9 3e bc 4f f9 bd
       0.21974416 0.51639915 0.33138356 -0.12173411
0000c0 6d 7b 9d 3e 62 fb f3 be a2 36 a5 bd 94 6e 8d be
       0.3075823 -0.47652727 -0.08067061 -0.27623427
0000d0 2f 4c a8 bd cb e6 98 bd fd 50 d4 3e 62 fd 92 3e
       -0.08217656 -0.07465895 0.4146804 0.2870894
0000e0 58 ea 28 3e 52 bc 3e 3e f3 1b d7 bc f9 23 d4 3e
       0.16495645 0.18626526 -0.026258444 0.41433695
0000f0 a3 13 95 3e c5 ff 4f be 1c 95 be 3d 50 94 d8 be
       0.29116544 -0.20312412 0.09305784 -0.42300653
000100 71 e3 49 3e 43 90 02 be 59 7f 5a be 82 e8 5e be
       0.19715668 -0.12750344 -0.21337642 -0.21768382
000110 64 6c fd be 48 47 6b be e0 27 62 3e ca da 7a 3e
       -0.49496758 -0.2297641 0.22085524 0.24497524
000120 ae 48 b6 3e bf 47 f8 3e 19 93 f8 be 0a 7c f3 3e
       0.35602325 0.48492238 -0.48549727 0.47555572
000130 44 17 78 3e d1 4c ac 3d a5 13 08 bf d0 1f be be
       0.24227625 0.08413089 -0.53154975 -0.37133646
000140 fd 07 b7 3e ab a7 ae be 87 a9 46 be fa eb 17 3f
       0.35748282 -0.34112296 -0.19400607 0.59344447
000150 b1 79 98 be 58 df 80 3e 09 c1 84 3e 64 10 d6 be
       -0.29780343 0.25170398 0.25928524 -0.4180938
000160 55 0e 0b bd 35 1c 16 3e e0 a5 a0 3e f7 c2 90 be
       -0.033949215 0.14659198 0.31376553 -0.28273746
000170 8c 1e 3f 3e 0d ee 61 3e d1 f1 ba 3e 61 87 98 3e
       0.18663996 0.22063465 0.36512616 0.29790786
000180 9e dd 74 3e 95 37 f9 be a3 ef e9 3e 2f ac 8a be
       0.23912665 -0.48675218 0.4569064 -0.2708449
000190 d0 2e ac be c6 fa 1a be fa 97 21 3f a1 71 9c 3e
       -0.33629465 -0.15134725 0.6312252 0.30555442
0001a0 59 25 25 be 95 9e b3 be 7d ae 34 be 2f 70 9f 3e
       -0.16127528 -0.35081926 -0.17644687 0.31140277
0001b0 81 11 4b 3e 97 4f d0 be c1 5e 16 3f 2a fc ca 3e
       0.19830896 -0.40685722 0.58738333 0.3964551
0001c0 5e 46 30 be 1a 09 f5 be db f0 8d be a4 94 af 3e
       -0.17214343 -0.47858506 -0.2772282 0.3429309
0001d0 ce 54 5b be be 43 62 3e f2 69 06 3f 90 d0 d9 3e
       -0.21419069 0.22096154 0.5250541 0.42541933
0001e0 62 53 83 3e e0 d2 a5 be 4b 07 8b 3e b9 58 04 3f
       0.25649554 -0.32387447 0.27154002 0.5169788
0001f0 be 8a 41 be ef 95 3d be cd 5d 04 3f 19 b5 03 3f
       -0.18900582 -0.18514226 0.5170563 0.5144821
000200 88 2a 31 be 1e 93 b0 be 43 f8 34 3e 3e d4 c3 3e
       -0.1730138 -0.34487242 0.1767283 0.38247865
000210 26 b8 69 3c 74 64 1b 3e 9a a2 17 bf 37 44 12 bf
       0.014265096 0.15175039 -0.59232485 -0.5713534
000220 98 8d 58 3e 3a 7f 68 be 03 e9 13 3e 86 c0 64 3d
       0.21147764 -0.22704783 0.14444356 0.055847667
000230 d6 25 7d 3d 34 3b d3 3e 26 da ca 3d 62 10 07 bf
       0.06180366 0.41256106 0.0990489 -0.52759373
000240 d9 4f 06 bf 26 8e be 3e a5 4e 13 bf 3b 29 02 bf
       -0.5246559 0.37217826 -0.5754188 -0.5084416
000250 cd 21 ce 3e 3a ab cf 3b 7b bb e9 3e e0 51 18 3f
       0.40260163 0.0063375505 0.4565085 0.5949993
000260 ef 5b a8 be cd af 7f be 6b 85 74 be 17 d4 83 3e
       -0.3288264 -0.24969406 -0.2387902 0.2574775
000270 27 c4 34 bd db 5b 8c 3e 45 a4 27 be f0 41 b8 be
       -0.044132378 0.2741383 -0.16371258 -0.35987806
000280 04 75 92 be c2 37 a3 3d 6f 0b 4a 3c 60 f7 03 bf
       -0.286049 0.07969619 0.012331828 -0.5154934
000290 88 bd fc bd b2 1e 1f bc 0c 7b c6 be 25 e0 0c be
       -0.12340838 -0.009711908 -0.38765752 -0.1375738
0002a0 ef dd aa 3e 25 b8 c0 be 02 e7 9a be cb c9 62 3e
       0.33372447 -0.3764049 -0.3025437 0.2214729
0002b0 cf 0a 97 3e 90 4d 9a be 4d dc 13 3e 62 82 e0 3e
       0.29500434 -0.301373 0.14439507 0.43849474
0002c0 28 7c d6 3e cf 95 87 3e 7b 99 e4 3e c5 a5 6d be
       0.418916 0.26481482 0.44648346 -0.23207767
0002d0 49 49 24 3d 77 9e b6 be 2f d9 19 be 31 42 f3 3e
       0.040108953 -0.35667774 -0.15024255 0.47511438
0002e0 a4 38 0e bf 53 11 12 3f 49 b6 72 be 69 17 c1 3c
       -0.55555177 0.57057685 -0.23702349 0.023570733
0002f0 af 7d 3d be bf 58 19 be e9 a0 c9 bd e8 87 0c bf
       -0.18504976 -0.1497526 -0.09845144 -0.54894876
000300 9c 8b 92 be 13 c8 78 3e 80 76 02 bf 34 e1 76 bd
       -0.28622139 0.24295072 -0.50962067 -0.060273364
000310 a1 93 f8 bd 35 b2 75 be a7 a8 22 3f 07 5a 85 3e
       -0.12137533 -0.23993762 0.63538593 0.26045248
000320 aa 4b 4c 3e 37 cb 89 3e 40 54 bb bc 85 b4 ef 3e
       0.19950739 0.26912853 -0.022867322 0.46817413
000330 bd b4 8f bd b0 87 c4 3e 81 3a a5 be 2b 32 e8 3c
       -0.07016895 0.3838477 -0.32271197 0.028344234
000340 61 ca 30 be 11 17 f5 3e e9 11 a4 3e 3b 3e e0 3d
       -0.17264701 0.4786916 0.32044914 0.109493695
000350 3e 43 c1 3e 1c e6 01 3d ed 02 34 be a4 63 1a be
       0.37746614 0.03171359 -0.17579241 -0.15077072
000360 7a da 01 3e 84 bc 6b be 60 f4 4d 3e 81 88 f2 be
       0.12680998 -0.23021132 0.20112753 -0.4736977
000370 4f 99 da 3e 24 bc f5 be 24 32 de be be 62 b9 be
       0.4269509 -0.47995102 -0.4339763 -0.36208147
000380 d5 e4 b8 be 86 80 ce 3d 68 77 1a 3e f5 ad 03 3d
       -0.36112085 0.10083108 0.15084612 0.03214832
000390 9d 41 07 bf 83 72 d0 3e f3 97 10 bf 59 fd aa 3b
       -0.5283449 0.40712366 -0.56481856 0.0052181897
0003a0 e3 60 a7 3e 6d e0 93 be 08 aa b0 3e 2c 6c df be
       0.32691106 -0.2888216 0.34504724 -0.43637216
0003b0 91 da 37 be 9b f6 14 3d 2d 51 57 be ac 64 5b 3d
       -0.1795447 0.036367994 -0.2102706 0.053562805
0003c0 f6 12 b1 3e 4d d2 f1 be d2 25 7d bd ea a3 d4 3e
       0.3458478 -0.4723076 -0.061803646 0.41531307
0003d0 10 3e ac bd 02 02 67 be 71 dc 01 be ff f1 c1 3e
       -0.08410275 -0.2255936 -0.12681748 0.3787994
0003e0 c1 53 04 3f cd 08 f7 be ca a5 84 3e 8d cb 52 3d
       0.516903 -0.48248902 0.25907737 0.051463652
0003f0 5b b3 9a 3e c1 6d ab 3e 50 17 b0 3e e9 df 11 bf
       0.30214962 0.33482173 0.34392786 -0.56982285

bias f4 [100]
000000 3a ab 21 3e f4 c1 19 3f 93 96 8d 3e 7e 5d 10 be
       0.15787974 0.60061574 0.27653942 -0.14098164
000010 72 82 c9 3e 2e 47 9d be 17 05 ef 3e 8d 04 87 be
       0.39357334 -0.30718368 0.4668357 -0.2637066
000020 53 4e c4 be 8a 21 d9 3e c7 e5 eb 3e b5 72 a0 be
       -0.38341007 0.424084 0.46073744 -0.31337515
000030 fe 06 15 3e 62 df 17 bd c5 a5 78 bc c1 c9 4a 3e
       0.14553449 -0.03707827 -0.015176241 0.19803526
000040 98 97 11 3f ed aa ca be 5b d6 9b 3d 41 9c 12 3f
       0.5687194 -0.3958353 0.076092444 0.57269675
000050 53 11 dd 3e 24 1c 10 3d 63 83 17 3f 17 76 13 3f
       0.4317728 0.035183087 0.59184855 0.57602066
000060 44 37 0c 3f 8a 81 a9 bd 7a b7 e6 3e a2 94 d0 be
       0.5477183 -0.08276661 0.45061857 -0.40738398
000070 84 13 e6 bd 26 b9 f4 bd c9 14 96 3e f4 72 8c be
       -0.11234191 -0.11949377 0.29312733 -0.27431452
000080 dc b6 a3 3e 9f 56 63 bd 52 bc bb be 78 ee 50 be
       0.31975448 -0.05550253 -0.36667114 -0.20403469
000090 7d 5b 1a be 4e 82 37 3d f3 b0 e9 3d 42 ea ab be
       -0.15073963 0.044802003 0.114107035 -0.33577162
0000a0 6f 30 3b be dd 20 fe bc 21 87 ec 3e f6 d8 b2 be
       -0.18280195 -0.03102153 0.46196845 -0.34931153
0000b0 6f 78 a8 bd ac 85 d6 bd 54 1c 9a 3e ca 34 39 ba
       -0.08226096 -0.10474715 0.30099738 -0.0007065056
0000c0 8d c0 1b 3e 55 56 5f be 57 19 ec be 92 c5 51 3c
       0.15210171 -0.21810277 -0.46113083 0.012803452
0000d0 18 56 e9 be 47 a9 27 3f 01 bb 4e 3e 0f a9 8a bd
       -0.45573497 0.6549267 0.20188524 -0.067705266
0000e0 2c 80 e1 be 11 c9 f8 3e 6c 43 aa be 57 66 23 3f
       -0.440431 0.48590901 -0.33254564 0.63828033
0000f0 f3 ad 12 3e 2d fd db 3e 47 36 21 3f 04 85 25 be
       0.14324169 0.42966595 0.62973446 -0.16164023
000100 40 62 80 be 43 33 22 3f fe ca 25 be b1 5a fb bd
       -0.2507496 0.6335947 -0.16190717 -0.122731574
000110 6d 14 3a be 22 da 90 be 29 f6 1f 3f 7c 5a 56 be
       -0.18171854 -0.28291422 0.62484986 -0.20932955
000120 0c 02 cd bd af e3 bf be 30 37 02 be d3 eb db bd
       -0.10010156 -0.37478396 -0.12716365 -0.10738339
000130 d3 1b 02 3f e2 8e c0 bd 2f 6b 14 3f dc c6 a0 ba
       0.50823706 -0.09402253 0.5797605 -0.0012266296
000140 86 d9 ef be c7 bf 6b be 73 a1 2c be eb fc b2 bd
       -0.46845645 -0.23022376 -0.16858463 -0.087396465
000150 69 69 af bd 45 95 ef 3e 1e 93 32 3e 28 b7 64 3e
       -0.08565027 0.4679357 0.17438933 0.22335494
000160 2c 11 ad 3b d5 9f bb be 46 2d d4 3e e1 26 0c 3f
       0.005281588 -0.3664538 0.4144079 0.54746825
000170 b4 11 97 3c 1b 2a 12 3f 99 62 9e 3e 52 92 c8 3e
       0.018441059 0.570955 0.309346 0.39174134
000180 64 88 8b 3d 33 9c a8 3e 50 94 c3 b7 a6 8e 2e bd
       0.06813124 0.3293167 -2.3314875e-05 -0.04261651

weight f4 [50, 100]
000000 7e ff 2d 3e ab 0a 2c 3e 83 bf ec 3d 31 b2 49 3d
       0.16991994 0.16800945 0.115599655 0.049242202
000010 6d f6 5f 3d dc 34 71 3b 2d 7b 9d 3d 53 b8 9a bd
       0.05467837 0.0036805188 0.076895095 -0.07554688
000020 27 a5 cc bd b9 5a 19 3a 5d fe 3a bd a2 c4 e6 bd
       -0.09992438 0.00058500055 -0.045652736 -0.112679735
000030 2a aa 24 3e 41 bb 02 bd 6d 33 09 bd 6f ee be 3d
       0.16080537 -0.03191686 -0.03349631 0.09322821
000040 9a 27 04 3e c5 6a 96 be 62 c2 71 3c ef 78 b4 bd
       0.12905732 -0.29378334 0.014755817 -0.08812129
000050 be 83 a8 3d f1 c1 c4 bd 72 f4 37 3d 52 dc f9 3d
       0.08228253 -0.09607304 0.044910856 0.12200226
000060 a8 b9 25 3e 23 a8 4f 3d eb 04 34 3e 56 94 bd bd
       0.16184103 0.050697457 0.17580001 -0.092568085
000070 18 10 a9 bc eb c7 eb bc de 61 07 3e 50 ee 30 3d
       -0.020637557 -0.028781852 0.13220927 0.043196023
000080 11 c7 8d 3d b6 2b f0 bc ea 02 67 bd f1 74 48 bc
       0.069227345 -0.029317718 -0.056399263 -0.012234912
000090 b5 c4 d8 bd 1e fe d4 3c 78 41 a9 3d bd a6 9c bd
       -0.10584394 0.026000079 0.0826444 -0.0764899
0000a0 ca 3f 08 be f1 20 05 be 47 0a 05 3d 66 30 bb bd
       -0.13305584 -0.13000847 0.032480504 -0.09140091
0000b0 fc 54 bb 3d 6a 74 93 3d e1 bc 15 3e e3 97 0d be
       0.09147069 0.071999386 0.14622833 -0.13827471
0000c0 21 a3 b9 bd 7c 7b 79 3d c7 36 19 be 47 ae 79 3d
       -0.090643175 0.06090878 -0.14962302 0.06095722
0000d0 7f ff 07 3c da 56 45 3e 54 e5 81 bc b1 2e 01 3b
       0.008300661 0.19271412 -0.015856422 0.0019711668
0000e0 66 6c 54 3d 9e 3f 34 bd 3d f3 0e be e5 15 a6 3d
       0.05186119 -0.044005983 -0.13959976 0.08109645
0000f0 9e 57 70 3d bc 30 2c 3e 16 34 5e 3d da c8 44 3d
       0.05867731 0.16815466 0.05424889 0.04804311
000100 ee 63 21 be fe bd 36 3d ff 02 ab bd 74 7a e2 bd
       -0.15760776 0.044614784 -0.08350181 -0.11058512
000110 21 f6 f1 bb 01 45 31 bd 61 c6 4e 3e 15 29 b3 3c
       -0.007384077 -0.043278698 0.20192863 0.021870175
000120 b2 99 03 be bc 99 a1 3d 15 fa 91 3e fb a4 4e 3d
       -0.12851599 0.07890651 0.2851111 0.050450306
000130 d0 5a 99 3c f6 ce 18 be 78 3c 9c b9 80 0d 94 3d
       0.01872006 -0.149227 -0.0002979969 0.072291374
000140 e3 cb 39 bd d0 68 35 be b4 2b ec bd 45 ea 1a bc
       -0.045360457 -0.17715764 -0.11531773 -0.009455268
000150 dd f3 f9 3d df fe 2e 3d e7 fd ed 3d 55 15 d2 3b
       0.12204716 0.042723533 0.11620694 0.0064112344
000160 38 eb c1 3d f0 e5 67 3d fb 05 03 3e 66 4c 9c 3d
       0.094686925 0.05661577 0.1279525 0.07631759
000170 33 06 a3 bc 27 e6 da bb de 77 d4 3d d1 7e 0f 3e
       -0.019900417 -0.0066802683 0.10374425 0.1401322
000180 38 db 15 3e 9c 67 8c 3d 05 00 df 3d 78 35 6d bd
       0.14634407 0.068556994 0.108886756 -0.05791232
000190 23 f7 39 be e1 8c 1c 3c 91 27 fd 3c 11 19 b2 bd
       -0.18160681 0.0095550725 0.030902656 -0.08696187
0001a0 d6 88 3a 3e 38 47 26 3e 1b 3f 11 3e 04 5d 8f bd
       0.18216261 0.16238105 0.14184229 -0.07000163
0001b0 00 59 49 3d fa 33 1b bd 06 8a 17 3e 11 09 2b bc
       0.049157143 -0.037891366 0.14798746 -0.010439173
0001c0 a9 a6 0d 3e 81 c0 d0 bc 72 2f 37 bc 3f f0 2b 3c
       0.13833107 -0.025482418 -0.011180745 0.010494291
0001d0 c9 61 56 3d 34 fb 9e be 7e b5 8c 3d f2 a0 ff 3d
       0.05233935 -0.31051028 0.068705544 0.1248187
0001e0 0f b6 8f bd 8a 18 22 3e 8b 4a c4 3d f0 3e 30 bc
       -0.07017147 0.15829673 0.095845304 -0.010757193
0001f0 d4 51 18 be b1 70 3e be 8e 0a 70 bd d4 af 5b bd
       -0.14874965 -0.18597676 -0.058603816 -0.05363448
000200 5e f4 27 3d 9f 18 bf bd 98 fa 0f bd 85 fb 38 3c
       0.04100453 -0.09330868 -0.035151094 0.011290436
000210 02 4e 43 be a8 d5 96 3d 9c 73 94 3d e0 e0 dd 3d
       -0.19072726 0.073649704 0.07248613 0.10833907
000220 cd 9e 0a 3e 4c 4d 3c bd fe c1 df 3d e0 3f f0 3d
       0.1353714 -0.045972154 0.10925673 0.11730933
000230 c8 90 91 3d 24 b1 9f 3d bc fe 18 bd 71 08 60 3d
       0.07107693 0.07797459 -0.03735231 0.05469555
000240 2d fa b0 bd 1c 24 f0 bd bb a0 96 3d 9f cf 36 3e
       -0.08641467 -0.11725637 0.07354876 0.17852639
000250 60 c6 b6 3d 73 d4 9b bc 8d 77 e5 bd fa 16 76 3d
       0.08924556 -0.019022202 -0.11204443 0.060080506
000260 9f 48 af 3d 9a a9 24 bd 81 ce c7 3d e3 26 e0 3d
       0.08558773 -0.040200807 0.09756184 0.10944917
000270 75 4a 8b bd 23 b9 cd 3d c7 40 e9 3c 5a 36 81 3d
       -0.06801311 0.10045078 0.028473271 0.06309195
000280 b2 9f e7 bd 26 fa c6 bd 4e e8 21 be bd 4d bc 3c
       -0.11309756 -0.09715681 -0.15811273 0.022986287
000290 a4 30 4d 3e f9 87 70 bd 10 db c3 3d 0e e0 54 3e
       0.20038086 -0.058723424 0.09563267 0.20788595
0002a0 8f 73 91 bd 36 ee 3a 3b 63 6e b4 3c 59 3f d3 bd
       -0.07102119 0.0028523332 0.022025293 -0.10314817
0002b0 33 b6 11 3e d2 6e a2 bd 79 5b b4 3c 51 de f6 bd
       0.1422966 -0.079312935 0.022016274 -0.12054122
0002c0 f0 54 1d 3e b3 c5 2e 3e e0 7b 7b 3d a6 33 ab 3d
       0.15364432 0.17067604 0.061397433 0.083594605
0002d0 7f d4 c5 bc fb 1e 04 3e aa 76 89 3d 83 b4 7c 3d
       -0.024149178 0.12902443 0.067120865 0.061695587
0002e0 3b 6e 1a bc 7d 49 0b 3e 57 7d 85 bd 06 e9 57 3d
       -0.009425695 0.13602252 -0.06518047 0.052712463
0002f0 9c d6 b2 bd f2 88 22 3d aa b4 b9 3d 1c 77 51 be
       -0.0873234 0.039681382 0.09067662 -0.20455593
000300 1b 5a 7c 3d 9a 3f 44 3e 6f b1 25 be 39 04 03 be
       0.06160937 0.19164887 -0.16180967 -0.1279458
000310 1b fa 25 3d f6 ab f5 3d 00 e8 eb bd 58 70 d8 3d
       0.040521722 0.119956896 -0.1151886 0.10568303
000320 77 32 04 be 1c e6 8b 3d da 55 fb bd 9d b4 9a bd
       -0.12909876 0.06830999 -0.12272234 -0.075539805
000330 80 b6 46 3d 11 1c 23 3d cc 89 34 3c 35 bd 79 3d
       0.04851389 0.039821688 0.011019181 0.060971458
000340 dc 1d 6c bc 09 cd f2 3d c5 1d f6 3d c1 6c 01 3e
       -0.014411416 0.118555136 0.12017397 0.12639143
000350 cd 39 f3 3d 6e 23 2a be 02 52 ac bd 12 c8 04 bd
       0.11876259 -0.16615078 -0.08414079 -0.032417364
000360 ef 58 66 3d af e0 56 be 69 5b cd 3c 93 72 bf 3d
       0.056237157 -0.20984147 0.025068002 0.09348025
000370 01 86 55 be 9e d2 37 3e be cf 06 3e 9e 09 ca bd
       -0.208519 0.17951438 0.13165185 -0.098651156
000380 bc 26 2f be e0 c6 60 be 40 69 fb 3c 46 ac 19 3d
       -0.1710462 -0.21950865 0.030689836 0.03751781
000390 4f e9 cc bc b7 c0 ce 3a fd 13 df bd 70 14 b1 3c
       -0.025013594 0.0015773986 -0.10892484 0.02161619
0003a0 2a 7e 59 bb 4d 96 38 3e a9 22 07 be f2 7e 15 3e
       -0.0033186772 0.18026085 -0.13196816 0.14599207
0003b0 7d 28 2b 3d e2 2f 06 be 74 ca df 3d f9 24 05 bd
       0.04178666 -0.13104203 0.10927287 -0.032505963
0003c0 4b 5d 70 3d 47 be 38 3e 55 12 06 3d c9 0f 5a 3d
       0.05868272 0.18041335 0.032732327 0.05323771
0003d0 71 51 97 3c 66 41 21 3c 12 45 03 3e ea 01 fc 3d
       0.018471451 0.009842252 0.12819317 0.123050526
0003e0 85 b7 02 3e 0c 2a 0a be f6 fa a2 3c e1 f7 c9 3d
       0.1276532 -0.13492602 0.019895058 0.09861732
0003f0 db ac 44 bd 43 3a f1 bc 8f b4 bc 3d c6 94 c6 3d
       -0.04801641 -0.029446727 0.09214126 0.09696345

bias f4 [50]
000000 e5 f8 23 3e 77 69 91 3d d1 0d 6c 3d 54 41 8e 3a
       0.16012914 0.07100194 0.057630364 0.001085321
000010 fb e3 11 3d 48 ab 95 bd 1f d0 51 3c 13 1f 60 3d
       0.03561781 -0.0730806 0.012805968 0.054717135
000020 a0 5d ec bd a2 d2 82 bd 11 7c ac 3d 52 c0 3d bb
       -0.11541295 -0.06387831 0.08422101 -0.0028953743
000030 6c df da 3d a8 0a d6 bd db 48 f5 3d 96 66 43 3d
       0.106871456 -0.10451251 0.11976787 0.047705255
000040 f6 9e 0e 3e f6 05 4e 3e 0a 16 17 3e 15 ca aa 3c
       0.13927826 0.20119461 0.14754501 0.020848313
000050 f7 d1 2b 3d e1 b6 56 bd b6 06 bb 3d c3 46 be 3d
       0.041948285 -0.0524205 0.091321394 0.092908405
000060 fb ab 7b 3c 13 67 81 3c ec 18 06 be b0 31 6b 3d
       0.015360828 0.01579622 -0.13095444 0.057420433
000070 ab 92 b4 bd d2 9a 8a 3c c9 24 a7 3d 77 e0 0f bd
       -0.08817037 0.016919527 0.08161313 -0.035126176
000080 e4 ca 88 3c f6 c1 ea 3c 9e ff f9 bb d5 d0 b9 3c
       0.016698308 0.02865694 -0.007629349 0.022682587
000090 c9 ce 1d be 4f aa 98 bd d5 cf 24 bd ef ac fd 3d
       -0.15410914 -0.07454359 -0.040237267 0.123865
0000a0 a0 33 1b 3d d4 b6 2c 3d 75 ed 84 3d 7d df 23 bd
       0.03789103 0.042166546 0.06490604 -0.040008057
0000b0 2f 99 c9 bd 4a be ec bd 30 6d 25 3e 74 24 70 3b
       -0.098436706 -0.11559732 0.16154933 0.0036642822
0000c0 d8 09 1d 3c 84 3c 57 3d
       0.009584866 0.052547947

weight f4 [3, 50]
000000 7f e2 13 be fc 82 0f 3e 08 e1 9c 3d 94 f8 aa bd
       -0.1444187 0.1401481 0.07660109 -0.08348194
000010 17 f9 52 be 2b 48 75 bd c6 7a 87 bd b3 91 65 3e
       -0.20602833 -0.059883278 -0.06615214 0.22418861
000020 6e 41 26 3b 1a 61 39 3d c6 0a 40 3e ed d6 54 bd
       0.002536859 0.04525862 0.1875411 -0.05196278
000030 19 cf 0f be ef 99 4c 3c b6 13 8e 3d 84 84 3b 3e
       -0.14043845 0.0124878725 0.06937353 0.1831227
000040 f5 ea 4c be 8c 75 88 be 9e 51 44 be b8 69 24 be
       -0.20011504 -0.2665218 -0.1917176 -0.16055954
000050 42 c4 a5 be 1c 53 05 3e 3b 3b 41 be f3 0b 3d 3e
       -0.32376295 0.13019985 -0.18870251 0.1846159
000060 61 61 80 be 85 cf f6 bc 3e 9f 6d 3d e3 bc 47 bd
       -0.25074294 -0.03012825 0.058013193 -0.04876412
000070 dc 68 2f be 97 ab d5 bd 00 f2 30 3d 11 cc 5f be
       -0.17129844 -0.10433119 0.04319954 -0.21855189
000080 b7 d8 52 be 2d 4d 13 3d ab 9d f7 bd f0 d5 f0 3d
       -0.20590483 0.035962272 -0.1209062 0.11759555
000090 e0 a5 64 bd 39 e1 09 3e 77 72 5a bc ab 6e 75 be
       -0.055822253 0.13464822 -0.013332955 -0.23967998
0000a0 bc c1 8b 3c dc 3a 0e 3e f4 7b 27 bd 7d 46 4b 3e
       0.017060153 0.1388964 -0.040889695 0.19851108
0000b0 a2 ce 55 bd b2 a4 b4 bc 3f 92 5d 3e 58 b7 6c bb
       -0.052199014 -0.02205119 0.2163782 -0.0036120024
0000c0 83 2f 93 be f3 fc 47 be 1a fe 2e 3e 7d 24 24 be
       -0.28747186 -0.19530086 0.1708912 -0.16029544
0000d0 83 81 5f be 7b b2 a4 3d 4c 2d 24 3d 5a 90 57 bc
       -0.21826749 0.08041855 0.04008226 -0.013156975
0000e0 f0 c2 8a bc 7d 8c 73 3e 88 3e 89 be 15 78 dc bd
       -0.016938657 0.23784061 -0.2680552 -0.10765091
0000f0 84 92 30 3e 2d 40 3a be 9d 4c 81 3e 40 34 b3 39
       0.17243391 -0.18188544 0.25253764 0.0003418047
000100 0e 39 8f 3d 30 b6 6f 3e 1d d6 91 3e f9 c5 48 3e
       0.06993304 0.23409343 0.28483668 0.1960677
000110 5f 56 be 3d 2c 18 e2 bd 72 71 3d 3e 10 86 8f be
       0.09293818 -0.11039767 0.18500307 -0.2803197
000120 5b f6 fc 3c 45 8e 3a be 77 72 68 3e 85 67 b3 bd
       0.03087919 -0.18218334 0.22699915 -0.08759979
000130 61 79 7c be 2b b4 eb bd ea 28 a4 bc 7f 25 60 be
       -0.24655677 -0.11508974 -0.02003904 -0.21889304
000140 1a 53 8b 3d 67 c6 8c bd d4 5f 06 3e ef 95 7f be
       0.0680296 -0.0687378 0.13122493 -0.24959539
000150 01 13 c6 bd 53 fd 2f be e6 e9 60 be 0e 7f 5b bd
       -0.096715935 -0.1718648 -0.21964225 -0.053587966
000160 e3 8c 03 3d e1 23 23 3e d5 0e a1 be 74 44 43 be
       0.032116782 0.15931655 -0.31456628 -0.19069082
000170 89 44 d8 3d 0f 78 89 be 75 a4 e0 bc 23 b6 e7 bd
       0.10559947 -0.2684941 -0.02742217 -0.11314037
000180 13 76 12 3e c3 da fd bd 9d e4 c2 3d 54 7b 96 3d
       0.14302854 -0.12395241 0.09516261 0.07347742
000190 9b 58 a9 3d ab aa a1 bd 98 db 44 be e8 10 0e 3e
       0.08268853 -0.078938805 -0.19224393 0.13873637
0001a0 87 cf 57 3e a1 8f 17 bd 9f 5a b2 3d bc 5d 7e be
       0.21075259 -0.03700221 0.08708691 -0.24840444
0001b0 36 3c 50 3e 47 5e 14 3d d9 d5 9c be 6e 60 3b 3e
       0.20335469 0.036222722 -0.30631903 0.18298504
0001c0 e6 2c 8b be 2e b5 74 bc 18 e8 9a be ed 7a 78 be
       -0.27182692 -0.014935775 -0.30255198 -0.24265642
0001d0 09 dc 0e be 0e 75 fa bd 52 6a 51 3e 6f de e9 3d
       -0.13951124 -0.12229358 0.20450714 0.11419379
0001e0 5a 66 76 be 9c 34 f8 3d d5 e3 13 3e 18 95 78 bd
       -0.24062482 0.121194094 0.1444238 -0.060689062
0001f0 1b ff 50 bd 16 58 3d bd 8e 61 75 3e 92 d4 f3 bd
       -0.051024538 -0.046226583 0.23962995 -0.11905779
000200 c6 ae 2c 3e 25 70 3b 3e d9 35 95 be 08 a7 61 3e
       0.16863546 0.18304498 -0.29142645 0.22036374
000210 5e f1 08 3d 6f d1 0f bd a0 43 25 3e 3c 8d 3b be
       0.03343331 -0.03511184 0.16139078 -0.18315595
000220 fd c3 28 3e e2 22 b3 bd 64 dd 36 3e f6 b9 32 3d
       0.16481014 -0.08746888 0.17857891 0.043634377
000230 69 fd 6c 3e 8d 6a 5f 3c 0d 7b 9e 3d bc 69 18 3e
       0.23143543 0.0136362435 0.07738314 0.14884084
000240 f7 8a bc 3c c0 d2 88 3d 6b 56 93 be 26 a7 89 3d
       0.023015482 0.06680822 -0.2877687 0.06721334
000250 24 f7 d5 3d 84 b6 7e 3c
       0.10447529 0.015546445

bias f4 [3]
000000 90 c3 ab 3d 34 86 7d 3c d2 6f 2b be
       0.0838691 0.015473891 -0.16741875
